checkpoints/checkpoint_group.pth (torch_old, 323813 bytes, 22 tensors)

fc1.weight f4 [128, 24]
00000000: 5f25 503f e0d8 bf3e e8a6 b9bd f946 5ebe
00000010: 7a0b 1d3f 79e5 01bf b7f4 99bc 0190 3fbe
00000020: 452a 753f 12b8 bd3e b662 5cbd fdd6 3ebe
00000030: 476f 4a3f 655b 01bf 6a11 a539 199f 5fbe
00000040: da52 6e3f fe40 003f 9f78 3e3c bd72 58be
00000050: ae6e 593f 621e cdbe 160c 54bc ad2c 97be
00000060: ce3f 033f 5167 523e 8544 483e 4d8d 983d
00000070: 8ac7 7b3f 6875 0ac0 6948 353e c394 ad3d
00000080: 7ac6 323f 24d1 a03d d6c1 7e3e 5d1b 17bf
00000090: bd47 363f 2f99 9abf 8558 703e b89d e1be
000000a0: fa4d 6f3f b051 9ebc 5736 9a3c d90f b4be
000000b0: 9093 ec3e 36a4 99be b3ca 113d 87b3 94be
000000c0: 7a85 ae3f 9165 793e d749 93bd c3a6 a7be
000000d0: abc4 853f a8fb f2be 3dc4 02be 212a 8bbe
000000e0: 2b6c 983f 2f4f 5d3e 141d 5abe a756 84be
000000f0: 4c99 853f 0f9b 9dbe 1c70 61be b114 b0be
00000100: 57e3 843f 6bd6 b23e 8eb1 96bd fcb9 a8bd
00000110: 4a63 4c3f d904 4bbe 4ae1 22be f5ca a23b
00000120: 2187 dc3e 8878 f53d cc6b e1bb d2d6 a0be
00000130: e56d c13e b8d9 1fbf 95ed 8abd 600a 83be
00000140: 30c2 173f 27b2 de3d 8100 463d 7fd5 693e
00000150: fd16 4e3f 04af d3be 0dbb cc3c f46e 933e
00000160: 2b4d dd3e c2f7 1ebe 68a4 433c 0672 2ebd
00000170: 0690 733f 9c09 51be a32e 9a3d 4371 733d
00000180: de51 dc3e 4b41 913e 6d54 2fbc 4cb4 36bc
00000190: edd6 61bd 7482 b5be 6dbe 19bc c9fb 6439
000001a0: 77fc 043f 1d39 3a3e d5be b6bc debd 913d
000001b0: 6cfc da3c 0690 9cbe b84b e7bc f493 21bd
000001c0: 1e3e 733e 72ea 703e ffbb a8bc 78ac 093d
000001d0: aedd d33d 5ec5 97be de56 6ebc fcff 84bd
000001e0: ae21 cfbd 73df 01bd 8320 2f3c 9a1e 46be
000001f0: 646b 6c3e 6d1c ae3e 0340 a83d 1f39 ffbd
00000200: 24b4 28bd e83d fabd bdbb 3cbc 3b06 e5be
00000210: 768d de3f fb94 b3bb db08 dfbb 9853 ffbe
00000220: 7a43 e93d d857 11bf 0607 c6bc 4903 43bf
00000230: 13f9 4540 b469 97bd 2c0f 503c 3fb0 42bf
00000240: 410d cc3f cd41 22be cf5d e53b e50e a6bb
00000250: 0c86 8d3f f09a 52bf 9632 03be 0e9b 933c
00000260: 3e24 b13f f1a5 69be 1580 98bd 2cfc 1fbd
00000270: 45cb 9d3f f349 91be 350f 133d 8aba 8cbc
00000280: 1cf8 5c3f 157f d3bd 8d21 abbc 6561 a43e
00000290: bd87 963f 2094 22be ccb0 933d 9942 8e3e
000002a0: 2927 ffbd a395 9f3f fffd 073e 3eff 76be
000002b0: 15b6 ba3f 0f46 4ebf 6979 093e 5639 99be
000002c0: 4dca 83be b63b 4d3f 2f9c 24bc ffbd 59bf
000002d0: f10e 2f3f f56b ee3e 232a 093d 995e 58bf
000002e0: ce43 ddbe 3165 9f3e 7d11 c6ba 474c 22bf
000002f0: d6be 39be 49d3 b33f cc86 653c 07d3 1fbf
00000300: 2cdc b53f f388 17be 6891 153d b246 ac3d
00000310: 7332 e03e 3308 b6be 4bcc a9bd 5c2d 2a3e
00000320: 0cd2 d03f 53b4 203d 138e 3bbe 67ab 31bf
00000330: be92 8b3e bbe7 33bf 9342 b8bd 25ef 1fbf
00000340: 73fd be3f d98b af3e fcbd c33d 2979 82be
00000350: 9793 89bd b072 40bf 1b55 b43c 595c a4be
00000360: ea4a 2abe 71dd 113e fabd c43a 0db3 efbe
00000370: 54af 03be 21c5 0540 cf8a b1bc 7df8 a5be
00000380: 6fed abbe c277 443e e89f 0cbd 6342 66bd
00000390: 6360 133f a7f6 48bf 09c6 7abc 245d 0bbe
000003a0: 3423 ddbe 7ddd 5a3e 6b77 bcbd 17b4 263e
000003b0: af10 a73f 0628 75c0 7f51 1a3d 5642 343e
000003c0: 1dab 7d3e 28e4 bd3e 2867 51bd 8bd3 a73d
000003d0: 1ddf 1740 1231 813f 6cfd 71bd 14fc 24bc
000003e0: a400 163e 66a6 d63d b388 93bd 95c8 323e
000003f0: 048f 0b3e 7863 a03f 79dd 86bd 8fbb 183e
0.81307024 0.3747015 -0.09065038 -0.21706761 0.61345637 -0.5074077 -0.018793447 -0.18707277
0.95767623 0.37054497 -0.053805076 -0.18636699 0.79076046 -0.5053008 0.00031484227 -0.21838035
0.9309517 0.5009917 0.011625438 -0.21137519 0.8493451 -0.40062243 -0.012942335 -0.29526272
0.51269233 0.20547225 0.19557388 0.07448826 0.9835135 -2.163416 0.17703404 0.0847564
0.698341 0.078523904 0.2487863 -0.5902613 0.71203214 -1.2077998 0.23471268 -0.44065642
0.9347836 -0.019326061 0.01882474 -0.3516834 0.4620633 -0.30008096 0.0355937 -0.29043218
1.3634484 0.24355151 -0.07191818 -0.32744417 1.0450643 -0.47457623 -0.12770171 -0.2718058
1.190801 0.21612237 -0.21300155 -0.2584736 1.0437407 -0.30782363 -0.22015423 -0.34390786
1.0381879 0.34929213 -0.073580846 -0.08238599 0.79839003 -0.19826068 -0.15906253 0.004968042
0.43071845 0.1198588 -0.0068793055 -0.31413895 0.37779155 -0.6244159 -0.067835964 -0.25593853
0.5928068 0.108738236 0.048340324 0.22835349 0.8050383 -0.41344464 0.024991537 0.28795588
0.43222937 -0.155242 0.011941053 -0.04258921 0.9514164 -0.20413822 0.075284265 0.059434187
0.4303121 0.28370127 -0.010701281 -0.011151385 -0.05513661 -0.3545109 -0.00938378 0.00021837572
0.5194773 0.1818585 -0.022307793 0.071162924 0.026731692 -0.3057863 -0.028234348 -0.03944774
0.23754165 0.23526934 -0.020597456 0.033611745 0.103450164 -0.29642767 -0.014547078 -0.06494138
-0.10113846 -0.03170724 0.010688904 -0.19347611 0.23087841 0.34006062 0.08215334 -0.12462067
-0.04118742 -0.12218839 -0.01151937 -0.44731316 1.738692 -0.0054804063 -0.0068064756 -0.49868464
0.11389823 -0.56774664 -0.02417327 -0.7617689 3.0933273 -0.07393208 0.01269893 -0.7605018
1.5941545 -0.15845414 0.0069997082 -0.0050676935 1.1056533 -0.82267666 -0.12812266 0.018018272
1.3839185 -0.22817208 -0.07446305 -0.03905885 1.2327658 -0.2837673 0.035903174 -0.017178793
0.86316085 -0.10326973 -0.020890022 0.32105556 1.1760174 -0.15876818 0.07211456 0.27785185
-0.12458641 1.246754 0.13280486 -0.24120805 1.4586817 -0.8057565 0.1342522 -0.29926556
-0.2574028 0.80169237 -0.010047003 -0.85055536 0.68382174 0.4656674 0.03348745 -0.84519345
-0.43215793 0.3113189 -0.0015111413 -0.6339764 -0.18139204 1.4048854 0.014009189 -0.6243138
1.4207816 -0.14798336 0.036515623 0.084119216 0.4378849 -0.3555313 -0.08290919 0.16618866
1.6314101 0.03923447 -0.18315916 -0.69402164 0.27260393 -0.7027547 -0.08997073 -0.6247428
1.4921097 0.34286383 0.09557721 -0.25483063 -0.06717604 -0.75175 0.022013238 -0.32101706
-0.1663014 0.1424463 0.0015010231 -0.46816292 -0.12859851 2.0901568 -0.021672634 -0.32416144
-0.33579585 0.19186309 -0.034332186 -0.056215655 0.5756895 -0.7850136 -0.015306004 -0.13609749
-0.4319092 0.21373554 -0.09202465 0.16279636 1.3051966 -3.8305678 0.037675377 0.1760343
0.24772306 0.37088132 -0.051123768 0.081946455 2.3729928 1.00931 -0.059079573 -0.010069866
0.14648682 0.10480957 -0.07203808 0.17459328 0.13628775 1.2530355 -0.06585211 0.14915298

fc1.bias f4 [128]
00000000: b7d6 89bf edea 39be 09f4 80bf ea16 43bf
00000010: ecee a5be 2de9 af3e d2e1 58bf f9e0 d83e
00000020: e2da 7ebf 008a 133f 3a73 38be 9682 54bf
00000030: 5136 52bf fb47 43bf 6e7c f0be b4a3 0dbe
00000040: 65d6 13be 7768 fdbe 8a8b 5c3f af4d 54bf
00000050: 16aa 65bf fba8 1bbf d17d 24bf 9f9d 013f
00000060: b85d 8dbf 723b 0ebf 5cb7 9abf 91ff c03e
00000070: 9743 bebe a376 e43b 11d6 55bf 573c 4fbf
00000080: 2455 a5be 7a78 f6be da8c 54bf cf70 46bf
00000090: e41c babf df9c 69bf 8c82 d6be 5dc6 933f
000000a0: 540f abbe 0207 2fbf 3944 b6be 2b80 82bf
000000b0: 2fd8 ddbe cffa 56bf 9cc8 b0be 041c c83c
000000c0: e360 a6be 0fbe 9d3e 850b 45bf f10e 58be
000000d0: 8ed6 913e 5e21 63bf 8afa 66bf 3fa5 94bf
000000e0: f83b b3bd ea09 fc3e c2c2 4bbf 2c9b 963d
000000f0: f43a 33bd a8d0 8bbf 0c52 fe3e 63ab 99bf
00000100: 5e85 c0be ccc9 56bf 6435 89be 70d8 ecbe
00000110: dd7a d73e 369e 8fbf 002c 9cbf 0fa4 d83d
00000120: 1111 bfbe ff6e 0abf 2681 ddbe f871 2bbf
00000130: 1f66 99bf 9faf 92bf 019b 5bbf 0bc7 4fbf
00000140: b966 9ebf b6a3 44bf 6216 5fbf 4fbb f93e
00000150: 0954 b7be e81d 64be 2e6b 4dbe 8fc1 98be
00000160: eaba 253e 638c 483f edb0 7dbf 6124 7ebe
00000170: 8c03 183f 21f6 14bd 067e 49bf a0f3 ffbe
00000180: 4540 723f 6777 07bf 9728 b3be 424e 80be
00000190: ea81 1bbf 3182 b5bf 0d95 25bf 7e24 a5bf
000001a0: 36e6 1dbf 6939 4abf 4c43 61bf 5210 12bf
000001b0: 07b5 81bd a586 10bf a114 05bf 8566 30bf
000001c0: ae04 06bf 6f78 11bf 96a4 c5be 0d45 813e
000001d0: 4d4f 08bf 77b7 053f 376c 74bf 3df6 85bf
000001e0: e158 4bbf 476d 23be 47d4 9bbf 038f bfbe
000001f0: af8e f9be 57ac 74bf c3c9 abbf f0be ee3d
-1.0768651 -0.18156023 -1.0074474 -0.7620684 -0.32408845 0.34357587 -0.84719574 0.4235914
-0.9955274 0.57632446 -0.18012705 -0.8301176 -0.8211413 -0.7628171 -0.46969932 -0.13831979
-0.14437254 -0.49493763 0.8615042 -0.82931036 -0.89712656 -0.6080472 -0.6425448 0.50631136
-1.1044226 -0.55559456 -1.2087207 0.37694982 -0.37160942 0.0069721504 -0.83529764 -0.80951446
-0.3229152 -0.4813879 -0.8302742 -0.7751588 -1.4540067 -0.9125499 -0.41896474 1.1544911
-0.33410132 -0.6837007 -0.35598925 -1.0195364 -0.43328997 -0.83976454 -0.34528053 0.024427421
-0.32495794 0.30809066 -0.769707 -0.2109945 0.28484005 -0.8872279 -0.9022604 -1.1612929
-0.087516725 0.49226314 -0.7959405 0.073538154 -0.043757394 -1.0923052 0.49671972 -1.2005428
-0.3760175 -0.8390167 -0.26798546 -0.4625888 0.42085925 -1.1220157 -1.2200928 0.10578167
-0.37317708 -0.54075617 -0.43262595 -0.6697078 -1.198429 -1.1459845 -0.8578339 -0.8116309
-1.2375098 -0.76812303 -0.8714353 0.48775718 -0.358063 -0.22277033 -0.20060417 -0.29835173
0.16184583 0.78339213 -0.9909809 -0.24818565 0.5938041 -0.03636754 -0.7870792 -0.4999056
0.9462932 -0.5291657 -0.34991905 -0.25059706 -0.6074511 -1.4180356 -0.6468056 -1.2901762
-0.616794 -0.7899385 -0.8799331 -0.5705615 -0.06333356 -0.5645545 -0.519846 -0.6890643
-0.5235089 -0.5682439 -0.38602132 0.25247994 -0.53246003 0.5223307 -0.9547762 -1.0465771
-0.79432493 -0.15959655 -1.2174157 -0.37413797 -0.4874167 -0.9557547 -1.3420948 0.11657512

fc2.weight f4 [128, 128]
00000000: 2179 9fbe c380 d6bd 57d6 34bf f3d5 f33c
00000010: 305f 1e3e 145d 94bf 09d2 8bbd 7485 a9bf
00000020: 453b 1fbe 9ad8 2b3f 5fd1 0fbf 9c2b 823e
00000030: 5b47 b33e 32ae 2abd cecf b4bc 9639 243e
00000040: 9e0c c53e 457a b6bd d6e0 cabf 180e 0fbc
00000050: 932b d6be 6e6c 9d3e f537 ebbe 2f7d 853e
00000060: 207f 54bf 5fae 3fbe d349 74bf 41b1 1bbe
00000070: b2a4 1b3e 5751 a6be 09c0 03be 0ef2 2cbb
00000080: 1bf1 f9bd f8c1 57bd fb3b 693e f372 f8be
00000090: 747b 56bf ea0b 94bf 0214 50be 9967 0d3e
000000a0: ab24 833e a8c0 103e a91c 0e3e 005d b43d
000000b0: 3c46 c13e 3406 2abf f464 b03b 5308 11bf
000000c0: 7731 b3bd 5652 4c3e 8f69 ffbe 7a26 153f
000000d0: cdb4 07bf 6471 09bf e18f 223b aca5 e1bf
000000e0: f76b 61bf 42e5 5e3f 449c 85be 96ef e73e
000000f0: 17ba 84be 7379 43bf 69a7 afbe 75ee 4dbe
00000100: 8dbf 23be 84b7 5d3e 824a 22be b226 21bf
00000110: edbe 053f 1a65 293d 676e 3dbd 2cc2 a0bf
00000120: 22a7 39be d924 89bf 5d9b 23bf e20f 6a3e
00000130: d2ad 563e af8c b0be 59db a2be 981c f7be
00000140: 141a 033f 8d0c c2be 53e1 d4bf 210a 0cbf
00000150: 6152 39be 7fc8 2cbf f7c0 c23e d262 debd
00000160: 8329 153f 1887 4f3f 49b2 7bbe 2610 62bf
00000170: b1d8 923e 2061 40bd 86e6 34bf 10b7 a2be
00000180: 7f7e 3fbf 5776 fcbd cad8 f2be 490e 37bf
00000190: 83e7 1cbe bec0 9cbe f945 983d 7ce3 22bf
000001a0: ad9c 083e 730d 8cbd 667b a7be 486f 9cbe
000001b0: 3de9 0a3f 2c82 e6be 665e 01bc 6f8d 433e
000001c0: 2215 023e ff97 76be 7ec0 19bf 8eb7 8fbf
000001d0: 66da 20be 2449 9f3f 0bbe b0be ee1a 8abe
000001e0: 443f 7ebf ad8b b6bd daa4 1bbf 1acb d73e
000001f0: 825c 8abe 227a 19bd 0bf7 fdbe be3b 113e
00000200: adb2 033d 265b 963e e74c 83be c6e7 cd3e
00000210: 7e07 7c3c 19f4 9c3e 3db5 cb3e fb9b 8ebe
00000220: 3e0a a23d 9910 3dbd 4eb5 9abe 8fe4 37be
00000230: 1612 16be e632 0dbe cb45 fdbd b1bf ba3d
00000240: 2728 113e 36b9 ae3e df25 873e fad7 083e
00000250: 8921 c6bc e808 83bd b185 fdbc fc01 09bf
00000260: 46db 76be cca3 25be 68eb 9abd a568 753e
00000270: 3dbc c83d 279f 19be 413f d6bd c67b 39be
00000280: 94bb 6abe 0025 033d 827c 86bd 9bb3 f1bd
00000290: 9941 9cbe 5d6d b9be a17a abbb 5349 c0bd
000002a0: 7fcd bf3d 597f b5bc 8fdd 283e e5ea 17be
000002b0: dff0 ccbc aa6f eb3d f125 41bd 5d7e 38be
000002c0: 0123 853e 62e3 2a3e b6dc 61bd 60a0 0abd
000002d0: a7ff 9dbe 5ba7 9bbd ee28 5fbc 491e a5be
000002e0: 75d8 253e ea0c e63e 2158 f2bc 4d9a 0dbe
000002f0: 0e58 bdbe db35 183d 5c4b 4bbe 0d74 833c
00000300: 848c ac3c e581 e13d 0d1c 3a3c 7a05 8dbe
00000310: 0d7f 423c a12b 27be 081b 88bc 4989 59be
00000320: e2da fb3d cee6 f13d 96ba 87bd 345c 44be
00000330: 7694 4cbd 0613 00bd ed2b 243d f2fd 613d
00000340: 41f0 6cbe d25d 5abc b136 773d b3ca 30be
00000350: 5df7 35be 588c 193d 7cdd 3e3c f824 80bd
00000360: 4a56 43be a2c3 9fbe 8003 c13d 9159 c2bd
00000370: dd9d 67be 4aca d6bd ce03 bfbd c238 c9bd
00000380: 0adb aebd 3e1c 713e d6db 12be e908 00bb
00000390: 42f6 303e d73c 9ebe fb69 91bd f2e7 dcbe
000003a0: 26ca f13d d66b f53c b8fc 84bb 4b1c cbbd
000003b0: bca8 afbe 14d6 febc 2b21 bf3c 342e 80bc
000003c0: 6ab6 813e c20d 72be 7255 56bc 86b7 bb3d
000003d0: ff81 893d 9b26 95be b806 47be 92cb aa3b
000003e0: 468d cdbe 8241 01be 3c33 1fbe 17c8 88bd
000003f0: 2f44 0cbd 709e 38be 9af8 a1bb a68a 09be
-0.31147102 -0.10473778 -0.70639557 0.029765105 0.15465999 -1.1590905 -0.068271704 -1.3243852
-0.15549953 0.6712738 -0.5617885 0.25423896 0.35015377 -0.04167003 -0.022071745 0.16037592
0.3848619 -0.0891004 -1.5849864 -0.008731388 -0.4183012 0.30746788 -0.4594113 0.2607207
-0.8300648 -0.18718861 -0.95425147 -0.15204336 0.15199545 -0.32483932 -0.12866224 -0.0026389393
-0.1220419 -0.052675217 0.22776787 -0.485252 -0.83782125 -1.1566136 -0.20320132 0.1380905
0.25613913 0.14135993 0.1387812 0.08806801 0.37748897 -0.66415715 0.0053831283 -0.56653327
-0.08749669 0.19953284 -0.49885222 0.58261836 -0.53010255 -0.53688645 0.0024804997 -1.7628684
-0.88055366 0.8706857 -0.26095784 0.45299977 -0.25923225 -0.7635719 -0.3430741 -0.20110495
-0.1599104 0.21652037 -0.15848735 -0.6294967 0.52244455 0.041356184 -0.046247866 -1.2559257
-0.18130162 -1.071437 -0.6390894 0.22857621 0.20964745 -0.34482333 -0.31807974 -0.48264003
0.5121167 -0.379002 -1.6631263 -0.54702955 -0.18097831 -0.6749343 0.38037845 -0.10858692
0.58266467 0.8106551 -0.24579729 -0.8830589 0.28680947 -0.046967626 -0.7066425 -0.3178029
-0.7480239 -0.12327259 -0.47431022 -0.7150617 -0.1532269 -0.306158 0.07435221 -0.63628364
0.13341017 -0.06838503 -0.32711333 -0.3055365 0.54262143 -0.45021188 -0.0078960415 0.19096921
0.12703374 -0.2408142 -0.60059345 -1.1227891 -0.15708312 1.2444196 -0.3451999 -0.2697367
-0.99315286 -0.0891336 -0.6079842 0.42147142 -0.27023703 -0.03746999 -0.4960254 0.14182946
0.03215282 0.29366416 -0.2564461 0.40215892 0.015382646 0.30654982 0.3978671 -0.2785338
0.0791211 -0.046158407 -0.3021645 -0.17958282 -0.14655337 -0.13788947 -0.123668276 0.091185935
0.14175473 0.3412568 0.2639608 0.13363639 -0.024185913 -0.06398183 -0.030947538 -0.5351865
-0.24107084 -0.16175765 -0.075644314 0.239657 0.098015286 -0.15002118 -0.104612835 -0.18113622
-0.22923118 0.032017708 -0.06566717 -0.11801835 -0.30518797 -0.3621625 -0.0052331244 -0.093889855
0.09365367 -0.02215545 0.16490768 -0.14835699 -0.0250172 0.114959076 -0.047155324 -0.18016954
0.26003268 0.16688302 -0.055142127 -0.03384435 -0.3085911 -0.0760028 -0.013620598 -0.32249668
0.16195853 0.44931728 -0.029583039 -0.13828392 -0.36981243 0.037160736 -0.19852966 0.016046548
0.021063097 0.110111035 0.011359227 -0.2754324 0.011871112 -0.16325237 -0.016614452 -0.21243776
0.12297608 0.118116006 -0.06627385 -0.19175798 -0.04994627 -0.031268142 0.040080953 0.05517382
-0.23138525 -0.013328033 0.060354892 -0.17264824 -0.17770143 0.037487358 0.011649486 -0.06257051
-0.19075885 -0.31203943 0.09424496 -0.0948974 -0.22618814 -0.10487802 -0.093268976 -0.09825279
-0.08537872 0.2354593 -0.14341673 -0.001953656 0.1728144 -0.30905792 -0.07100292 -0.4314571
0.11806135 0.029958647 -0.0040584467 -0.09917506 -0.34308422 -0.03110794 0.023331245 -0.015647031
0.25334483 -0.2363806 -0.013081895 0.09165864 0.06714248 -0.29131016 -0.19436157 0.0052122558
-0.40146846 -0.12622645 -0.15546888 -0.06678789 -0.034244712 -0.18029189 -0.0049429657 -0.13431796

fc2.bias f4 [128]
00000000: 84b2 8cbe 7ae6 adbc 2908 96be 564e 333d
00000010: 35ef 43bd 178e d2bd 5ca9 21bf 2b57 47be
00000020: 32dd 7e3c 51d1 ccbd b674 9dbf 2881 0e3b
00000030: 52a6 78bd 9621 bcbe 6b26 f5bd 927c 10be
00000040: 6f6e f0bc abf7 3cbf 6bc2 38bd 7cde 02bf
00000050: 0297 d9bd 4b20 aa3e 64dc b8bd ccdf 5dbf
00000060: b77f 82be 77c5 82bd e134 21be 8c51 75be
00000070: f708 01be 3d88 93be 7e48 5fbe 85af 2bbf
00000080: 34a6 6fbe 52ce 4cbe 75e5 3dbc e135 39bf
00000090: c087 213e 53e0 86be 3a61 a9be d510 18bf
000000a0: 2660 98be cee0 5ebe 900a c63e cc63 02bf
000000b0: 0358 c6be 9230 e1bf 5cc1 0a3e f767 3fbe
000000c0: 95db 8cbf 6e5a 9dbd 50b8 8cbe 2e19 a0bf
000000d0: 356e 903e b901 9bbe cc65 c4bd 5005 a7be
000000e0: 09fe a8bd 3a77 9b3e 8273 87bf 3f62 b8bd
000000f0: 40b7 0fbf 318e 22be 9999 0bbe 81b5 62bd
00000100: 5aac 213d 83fd 22bd a270 69be e050 87be
00000110: 6549 d0be 66d0 01bf d797 a1be 0ccc 64be
00000120: 56af d5bd 9394 07bf 3a95 c13d 3c96 77be
00000130: 5920 7f3d 0611 7fbd ba4c 3cbf b7fa b5be
00000140: 48cb c23e 900a a4be 4952 afbe a107 8ebf
00000150: 92b8 fcbd d057 c8bd 062b 563e c01e 2bbf
00000160: 2db2 80be 84f0 39be 7914 91be 0a1e 41be
00000170: 6de8 b73d 945f 94bf 34ae 133d 15aa 83be
00000180: c30c f63c da4c 56bf 0215 a0be a23d 8abf
00000190: 50bd 58be 96ca e5be cfc1 08bd fcdf 02be
000001a0: becb 333f 33d3 763f eccb 6fbd 4710 89be
000001b0: f8fc 92be 0bb7 31be d17e bdbe 03a8 863e
000001c0: 3206 3ebe b2fa 05bf cff6 323e 5e92 f3bd
000001d0: da1c cfbd 069c 81be 047b c5bf c011 d8be
000001e0: 3be0 0abe 90e5 3ebe d603 70bf b1a9 acbc
000001f0: 2b76 7cbd 25fd 90bf a259 23bf 0cb4 67be
-0.27479947 -0.021228064 -0.293031 0.04377588 -0.047835547 -0.10281008 -0.63149047 -0.19466846
0.015555667 -0.100008614 -1.2301242 0.0021744464 -0.06070549 -0.36744374 -0.11970218 -0.1411002
-0.029349534 -0.7381541 -0.045107286 -0.51120734 -0.106245056 0.33227763 -0.09026411 -0.8666961
-0.25488064 -0.0638532 -0.15742828 -0.23956889 -0.12601076 -0.2881488 -0.21804997 -0.67064697
-0.23403245 -0.2000058 -0.011590351 -0.7234784 0.15774441 -0.2634302 -0.3308199 -0.59400684
-0.29760855 -0.21765444 0.38679934 -0.5093353 -0.38739023 -1.7592947 0.13550323 -0.18692003
-1.1004511 -0.07683264 -0.2748437 -1.2507684 0.2820908 -0.30274752 -0.09589729 -0.3262124
-0.08251578 0.303644 -1.0582125 -0.09003114 -0.5613899 -0.15874554 -0.13632812 -0.055348877
0.039471008 -0.03979255 -0.22796872 -0.2642889 -0.40680996 -0.50708616 -0.31561157 -0.22343463
-0.10433833 -0.5296108 0.09452291 -0.24178404 0.06228671 -0.062272094 -0.73554575 -0.35542843
0.38045716 -0.3203931 -0.34242466 -1.1096078 -0.123398915 -0.09782374 0.2091485 -0.66843796
-0.25135937 -0.18158156 -0.28335932 -0.18859115 0.089798786 -1.1591668 0.036054805 -0.257157
0.030035382 -0.83711016 -0.31266028 -1.0800059 -0.21165967 -0.44881123 -0.033387955 -0.12780756
0.7023276 0.96416014 -0.058544084 -0.2677023 -0.28708625 -0.17354982 -0.37010816 0.26300058
-0.18557051 -0.52335656 0.17476963 -0.11893152 -0.10112925 -0.2531435 -1.5428166 -0.42201042
-0.135621 -0.18642259 -0.93755853 -0.021077009 -0.06163613 -1.1327254 -0.63808644 -0.22627276

fc3.weight f4 [2, 128]
00000000: cb63 6d3f 3362 923d d7e7 093e 39e3 093f
00000010: ecc9 2d3c 3a8e febb 6611 b5be 4765 993c
00000020: a45a 97bb a137 8b3c 791f 3dc0 694d b03c
00000030: 881a fcbb a9b3 2cbd 9208 16bc e09b 73bc
00000040: 43eb aabc f7be 91bd 3292 f13c aa67 f4be
00000050: a56f bfbd f6c4 e2bd eae7 c0be 2dcc f6bb
00000060: 52fd 8fbd 0639 ebbd 11c3 1ebe 92a6 15be
00000070: 12ec 973d 6a17 c33d 4013 f33c 351e e13e
00000080: 76e6 0f3e 47e0 3e3c 6d0e 973c 66c2 ac3d
00000090: 8a2d 843d 3bdd 67be f97f 963c 32ea 7ebe
000000a0: 5c43 3bba 47c4 f0bc ec7c 74be 734c 2e3f
000000b0: 9876 803e d4a8 25be f714 0e3e 5323 cb3c
000000c0: 221e 17c0 83a0 a9bd 690f 42bb 8cd1 5f3c
000000d0: afcf 5c3e 6cc7 17be 72a7 90bc f002 88bd
000000e0: 2b6f 763d e56e bdbe ac17 26be c00e c7bc
000000f0: 1ee8 68be c9fc 39bd 4916 ebbc dd49 f9bc
00000100: 3f67 17bf 921a 1cbc b300 e3bc d221 5cbd
00000110: f008 fdbc e036 2f3e 53e2 603f 1475 a23c
00000120: 51a3 c03d 8ace 55bf 72f1 8f3d f76c bf3a
00000130: 4840 7fbe f734 41bc 4017 e03d af15 bf3d
00000140: ce04 093d ed86 28bf 1b51 d33d 8fdd cabe
00000150: 2eac 823e 398f 18bd 26d9 79bc 04db 70bf
00000160: 2c0a 83bd 69b5 b53f eff5 8fbc b113 b4bb
00000170: a71d 2bbc 3b41 debe 074e ed3d c4d1 04bc
00000180: d036 813e eef8 a33e 5d5c 0cbf 7961 0abf
00000190: 92a7 9c3d 321b 183d e225 433e d123 89bb
000001a0: 18db 003f 63e3 163f d458 a2be 60e3 e6be
000001b0: 8d77 babd 5acd 1c3c cd2e d93c b506 843e
000001c0: 297e 493d 5a10 fcbd ba09 683d d985 073d
000001d0: 80d0 c0bd 9c58 ce3c 38b3 1dbe eeee 293e
000001e0: fae5 513c 65ad 1dbd 2045 50be 5cf9 b43b
000001f0: 4c85 d0bc e1d8 1f3f 732d 2bbd 1e6f c43b
00000200: ac55 f4bd 9c9c bf3e 727d 703f 313d 6ebe
00000210: 2ca3 d6bd 4651 07bd a48f c6be e054 34bd
00000220: b19d bb3c df49 c63d 96ad 7dbf 44af 24be
00000230: 0b79 89bd 3305 9fbe d838 0ebf 44d5 4c3e
00000240: e152 73be ed49 053e 2485 ccbe 5b5e 893d
00000250: 56a4 d8bc 1832 323f dd9a 4a3f 211a 173e
00000260: 0dbd b73d 11fe 12bf a950 19bd ac7f 1c3f
00000270: 9dbf b0bf 6aab fc3d 5119 2abd 23c6 483f
00000280: e084 fe3d 41f3 7e3b f79a 0c3e 2cc2 39bd
00000290: 3479 51be ebe8 0d3f e2cf 47bc 7ca3 983c
000002a0: 127e 3d3e d490 533c 0e79 a93f 3a5f 8b3e
000002b0: 723a a33d bfd8 52bf b97e 7dbd f2ec c3bd
000002c0: eb0e 4f3f fe4a ef3e e364 60bd cdc8 52bf
000002d0: 33de 2dbf 821d 56be 2eef 31bc 09f4 583d
000002e0: 722d 193e 8d22 3dbf de48 acbd d612 623e
000002f0: 6976 783d 4b18 1a3d 2dbd 023d d510 2abc
00000300: 9036 2a3f 4873 bfba e476 ebbc ab7a c3be
00000310: 2546 c3be a2be 993e 135e 083f ba30 413e
00000320: 2f24 c2be ace2 923c 95a1 e53d 60dd d0bd
00000330: c662 1d3d 18c7 56bd 58c6 893f fe4b 48bf
00000340: 96b1 a9bf ac74 b9bf 8044 13bf 9221 6d3e
00000350: b6bf e9bd a008 883e 0839 6e3f 514e 863e
00000360: f80b 05be ef7e e6be 1ff0 9bbe 2c37 18bd
00000370: 463c b03c b420 523e 99b7 1fbf 3cca 03be
00000380: 5ca9 a3be 7aae 97be 2090 2d3e 9247 1abf
00000390: d021 003f 4eff 2ebf 58b7 e7be 6bcf 38be
000003a0: cca5 aebf 807d d3bf 975e 863f 2f27 10bf
000003b0: c0b2 84bd 6d60 5b3e b854 8b3d 870b 203f
000003c0: fcf2 e03f 4980 163e 088c 96be 713f 77bc
000003d0: b295 51bc 1804 fa3c 9e59 02c0 b962 af3f
000003e0: 7103 1f3b 1b3e aaba 20ae a73e 365b a8bc
000003f0: c9b3 8a3b f182 e0bd a019 bc3f 6f6d ad3d
0.92730397 0.07147636 0.13467346 0.5386234 0.010607224 -0.0077684196 -0.35364836 0.01872505
-0.0046189595 0.0169943 -2.955046 0.021521287 -0.0076935925 -0.042163525 -0.009157317 -0.014868706
-0.020864135 -0.07116502 0.029488657 -0.4773534 -0.093474664 -0.110727236 -0.37676936 -0.007531664
-0.07030739 -0.11485486 -0.155041 -0.14614323 0.07418074 0.0952595 0.029672265 0.4396836
0.14052758 0.011650152 0.018439496 0.08435516 0.064539984 -0.22642986 0.018371569 -0.24894026
-0.0007143521 -0.029390467 -0.23875779 0.680854 0.2509048 -0.16177684 0.13875185 0.024797117
-2.3612142 -0.08282568 -0.0029611236 0.0136608 0.215636 -0.14822167 -0.01765797 -0.06641185
0.06016461 -0.36998668 -0.16219968 -0.024299026 -0.22744796 -0.04540709 -0.02869715 -0.030430729
-0.59141916 -0.009527819 -0.027710294 -0.05374319 -0.03088805 0.17110777 0.87845343 0.019831218
0.0940615 -0.8351828 0.07028474 0.0014604618 -0.24926865 -0.011792413 0.109419346 0.09330308
0.033451848 -0.6583088 0.10318204 -0.3962216 0.25521988 -0.037245963 -0.015249526 -0.9408419
-0.063984245 1.4195987 -0.017573325 -0.0054955115 -0.010444081 -0.43409142 0.11587148 -0.008106653
0.2523713 0.32025856 -0.54828435 -0.5405498 0.07649149 0.03713531 0.1905742 -0.004185178
0.5033431 0.58940715 -0.31708395 -0.45095348 -0.09104834 0.009570444 0.026511574 0.25786367
0.04919258 -0.12307806 0.0566499 0.03308663 -0.09414768 0.025188737 -0.15400398 0.1659505
0.012811178 -0.03849544 -0.20338869 0.00552289 -0.025454186 0.62440306 -0.04179139 0.0059946915
-0.11930403 0.3742417 0.93941414 -0.2326553 -0.10480341 -0.033036493 -0.38781464 -0.044026256
0.022902342 0.096820585 -0.99092996 -0.16082484 -0.0671254 -0.31058654 -0.55555487 0.2000323
-0.23762085 0.13016482 -0.39945328 0.0670745 -0.026445549 0.69607687 0.7914255 0.14756061
0.089716054 -0.57418925 -0.03743044 0.6113231 -1.3808476 0.12337382 -0.04152805 0.7842733
0.12427688 0.0038902315 0.1373099 -0.045351192 -0.20456392 0.5543353 -0.012195559 0.018632643
0.18505123 0.012912948 1.3240068 0.2722109 0.07970132 -0.8236198 -0.06188843 -0.09566678
0.8088214 0.46736902 -0.054783713 -0.8233765 -0.67917174 -0.20909694 -0.010860248 0.052967105
0.14958742 -0.73880845 -0.08412336 0.22077498 0.0606598 0.037620824 0.031918693 -0.01037999
0.66489506 -0.00146065 -0.028743215 -0.38179526 -0.38139454 0.30028254 0.53268546 0.18866244
-0.3791823 0.017930351 0.1121246 -0.10198474 0.038424276 -0.052435964 1.0763655 -0.78240955
-1.325732 -1.448873 -0.575264 0.23157337 -0.11413519 0.2656908 0.9305577 0.26231626
-0.12992847 -0.45018718 -0.30456635 -0.03716199 0.021513116 0.20520288 -0.6238952 -0.12870115
-0.31965148 -0.29625303 0.1694951 -0.6026546 0.50051594 -0.68358314 -0.45257068 -0.18047874
-1.3644347 -1.6522675 1.0497617 -0.5630979 -0.06479406 0.21423502 0.06803268 0.6251759
1.7574153 0.14697374 -0.2940371 -0.015090809 -0.012792038 0.03051953 -2.0367198 1.3702003
0.0024263526 -0.001298848 0.32750034 -0.020551305 0.004232858 -0.10962475 1.469532 0.084681384

fc3.bias f4 [2]
00000000: 5191 33bf 2493 e13d
-0.7014361 0.11014393

fcs1.weight f4 [128, 24]
00000000: ba8e a93b ebb8 023a 7851 bdba 985c a73a
00000010: de93 073b 875c cebb 7851 bdba 985c a73a
00000020: 2d21 1b3c 869c 043a cac8 b8ba d6a5 b9ba
00000030: 934c a13a 9dcc d6bb cac8 b8ba d6a5 b9ba
00000040: e96d 643c a532 bd39 545d aeba 3ce6 a7ba
00000050: 5e32 403a 5897 dcbb 545d aeba 3ce6 a7ba
00000060: df38 ac3c 50a0 a13b 0fa7 013b 6b5c f23a
00000070: 4735 a53c 330b 97bc 0fa7 013b 6b5c f23a
00000080: 2100 cf3c 0f67 d73b f237 35bb 1434 b63b
00000090: 403a 9d3c 25c4 a4bc f237 35bb 1434 b63b
000000a0: e78d 043d 1e56 ce3b 7e12 883a 6ef3 053b
000000b0: fbbe 713c 9dab a3bc 7e12 883a 6ef3 053b
000000c0: cef2 403d 5430 0f3d 02b4 06bc d6b8 b53b
000000d0: 2d9f c23c f2e7 80bd 02b4 06bc d6b8 b53b
000000e0: c973 3d3d 479b 013d 8abf 4dbc d472 87bc
000000f0: d87d c23c d00f 85bd 8abf 4dbc d472 87bc
00000100: 0a6e 6f3d c77c dd3c c35b 323c 4882 3cbc
00000110: d9b4 d23c aac7 7fbd c35b 323c 4882 3cbc
00000120: a387 c33c e8a4 a63a 1f20 98b9 cc61 cc3b
00000130: 5185 383c 3e29 87bc 1f20 98b9 cc61 cc3b
00000140: 4cea cd3c 4f23 cb3a ae66 70bb bf4e 81ba
00000150: 3a9a 0b3c b049 89bc ae66 70bb bf4e 81ba
00000160: 8dde f63c 64f2 ae3a 7e1b 273b dff9 b4ba
00000170: 7148 c73b 2fd9 86bc 7e1b 273b dff9 b4ba
00000180: 9b40 383d 9dd6 b13c 1bb4 33bc 4d01 453c
00000190: 9b77 863c c1a4 7dbd 1bb4 33bc 4d01 453c
000001a0: 5588 4d3d 1564 da3c 93bb 473c 808e 903c
000001b0: 7c71 a43c ea43 72bd 93bb 473c 808e 903c
000001c0: 8656 613d 4053 cc3c c03e 9aba 5c07 0dbc
000001d0: 8e96 a93c f810 68bd c03e 9aba 5c07 0dbc
000001e0: a379 cf3c be14 0a3c 9677 e6ba 759a 27bc
000001f0: 9e20 333c 3f07 91bc 9677 e6ba 759a 27bc
00000200: 3f98 d93c 232d d83b 0a66 12bb 5d93 fbbb
00000210: e96c e73b 17e7 aabc 0a66 12bb 5d93 fbbb
00000220: 14da f63c 3d39 9b3b 130b 2a3b 2140 02bc
00000230: b36d 1b3b fcd7 bbbc 130b 2a3b 2140 02bc
00000240: 32bd 753c 4df8 753b 32f4 07bb c7f7 1c3c
00000250: fbec 153c 854b bdbb 32f4 07bb c7f7 1c3c
00000260: 43bb 7e3c 3fa4 293b 1e2a 9a3a 7d33 94bb
00000270: 8c49 123c cf00 b1bb 1e2a 9a3a 7d33 94bb
00000280: e5de 823c fca9 6a3a e0aa 15bb ccff 27bc
00000290: fbcc 1c3c ad7f 99bb e0aa 15bb ccff 27bc
000002a0: 6b14 b53b 9d26 b7b8 9430 d2ba 7cbf 1fb9
000002b0: 3b7a dc3a d9c9 1cbb 9430 d2ba 7cbf 1fb9
000002c0: b5b9 d93b 42e2 0ab9 8352 0eb9 5562 a9b9
000002d0: a3c1 a63a 45bb 29bb 8352 0eb9 5562 a9b9
000002e0: 042d 083c f503 efb8 f7ca 2aba d9df e138
000002f0: c364 783a c051 33bb f7ca 2aba d9df e138
00000300: 110c 0c3d cca9 4bb9 c28c 9c3b 8ac5 dc3c
00000310: 6084 473d cde9 3dbd c28c 9c3b 8ac5 dc3c
00000320: 4fcd 163d bd42 123b 2d98 a4bb 212b bf3c
00000330: 0693 323d 272a 55bd 2d98 a4bb 212b bf3c
00000340: 5703 2e3d 0919 8f3b 0aaa e4bb c324 083c
00000350: dde9 fb3c fcc6 52bd 0aaa e4bb c324 083c
00000360: 75de cc3c 9299 033c b5f1 09bc d3ac e23b
00000370: cc90 3f3c d0dd 9dbc b5f1 09bc d3ac e23b
00000380: cc63 ba3c ffbe 0e3c 6809 3fbc 8b92 873a
00000390: d66d 183c 6646 c1bc 6809 3fbc 8b92 873a
000003a0: b607 f33c 41b8 063c cbdf 403c 2622 cbba
000003b0: fa74 1e3c 23b8 ecbc cbdf 403c 2622 cbba
000003c0: bae9 b03c 9f4e d03a 51e2 0dbb 682a c339
000003d0: 654f 803c 95ea 9dbc 51e2 0dbb 682a c339
000003e0: 75b2 b13c 7702 a03a bc32 b2bb fbaa 8bba
000003f0: e128 5f3c b2f4 99bc bc32 b2bb fbaa 8bba
0.005174485 0.00049866614 -0.0014443835 0.0012768684 0.00206875 -0.006297651 -0.0014443835 0.0012768684
0.009468359 0.0005058724 -0.0014097926 -0.0014163803 0.0012306146 -0.0065551535 -0.0014097926 -0.0014163803
0.01394222 0.00036086622 -0.001330296 -0.0012809704 0.0007331724 -0.006731909 -0.001330296 -0.0012809704
0.021023212 0.004932441 0.0019783413 0.0018490677 0.020167006 -0.018437957 0.0019783413 0.0018490677
0.025268616 0.006573565 -0.0027651754 0.0055604074 0.019192815 -0.02011306 -0.0027651754 0.0055604074
0.03236189 0.006296887 0.0010381488 0.0020439285 0.014755006 -0.019979293 0.0010381488 0.0020439285
0.047106557 0.0349582 -0.008221628 0.005545716 0.023757542 -0.0629424 -0.008221628 0.005545716
0.046253 0.031642225 -0.0125578735 -0.016534247 0.023741648 -0.064971566 -0.0125578735 -0.016534247
0.05845455 0.027037038 0.0108861355 -0.011505671 0.025721 -0.062446274 0.0108861355 -0.011505671
0.023868388 0.0012713941 -0.0002901563 0.0062372442 0.011262254 -0.016499158 -0.0002901563 0.0062372442
0.025136136 0.0015498194 -0.0036682296 -0.0009865387 0.008520657 -0.01675877 -0.0036682296 -0.0009865387
0.030135417 0.0013347385 0.0025498564 -0.0013807378 0.0060816337 -0.016460983 0.0025498564 -0.0013807378
0.044983488 0.02170878 -0.010968233 0.012024236 0.016414454 -0.0619247 -0.010968233 0.012024236
0.050178844 0.026659051 0.012190717 0.017646074 0.020073645 -0.0591468 0.012190717 0.017646074
0.055014156 0.02494204 -0.0011767969 -0.008607712 0.020701673 -0.056656808 -0.0011767969 -0.008607712
0.025326556 0.008427797 -0.0017583247 -0.0102296965 0.0109330695 -0.01770365 -0.0017583247 -0.0102296965
0.026561854 0.0065971776 -0.0022338652 -0.007677479 0.0070625436 -0.020862145 -0.0022338652 -0.007677479
0.030133285 0.004737048 0.0025946542 -0.00794986 0.002371651 -0.022930138 0.0025946542 -0.00794986
0.014998721 0.0037532032 -0.0020744917 0.009580559 0.009150739 -0.005776825 -0.0020744917 0.009580559
0.015547576 0.0025885252 0.001176182 -0.0045227394 0.008928668 -0.0054017077 0.001176182 -0.0045227394
0.015975425 0.0008951721 -0.0022837445 -0.010253858 0.0095703555 -0.0046844096 -0.0022837445 -0.010253858
0.0055261157 -8.733312e-05 -0.0016036206 -0.00015234755 0.0016821095 -0.0023924022 -0.0016036206 -0.00015234755
0.0066444525 -0.00013244993 -0.00013572913 -0.00032307455 0.0012722503 -0.0025898975 -0.00013572913 -0.00032307455
0.008311514 -0.00011397145 -0.00065152295 0.00010770531 0.0009475464 -0.002736196 -0.00065152295 0.00010770531
0.034191195 -0.00019422843 0.004777522 0.026949663 0.048710227 -0.046365548 0.004777522 0.026949663
0.03681689 0.002231761 -0.0050230236 0.023335995 0.043597244 -0.052042153 -0.0050230236 0.023335995
0.042483654 0.004366998 -0.006978278 0.008309546 0.030751163 -0.051459298 -0.006978278 0.008309546
0.02500842 0.0080322195 -0.008419444 0.006917575 0.011692237 -0.019270808 -0.008419444 0.006917575
0.022752665 0.008712529 -0.0116599575 0.0010343356 0.009303531 -0.023593139 -0.0116599575 0.0010343356
0.029666763 0.0082226405 0.011772106 -0.0015497848 0.009671444 -0.028896397 0.011772106 -0.0015497848
0.021595825 0.0015892572 -0.0021649788 0.00037224893 0.015662858 -0.019276896 -0.0021649788 0.00037224893
0.02169154 0.0012207766 -0.005438177 -0.0010655815 0.013620586 -0.018793438 -0.005438177 -0.0010655815

fcs1.bias f4 [128]
00000000: 1eef 78b9 8874 7ebb 26d0 68bc 11d8 cbba
00000010: 2f3d efbc 4707 1cbc 024a b1bb 3177 7538
00000020: 62bb 1fbc 8d42 77ba 3a6b baba 6595 cbb9
00000030: 5a52 7aba 6fb9 233a 9ff0 fcba c9b5 d6b9
00000040: 6c24 30b9 1d92 75bb cf04 fabb f6f0 0a3a
00000050: 4229 3bbb 5511 30ba 429f 193b 3b64 adbc
00000060: 2874 b3bc f3e7 54bc 1484 1bbc ecd7 fbba
00000070: 4d54 c1bb 6570 bcbb c812 b5bb 6f67 bdbc
00000080: 2ee7 06bd 46ca f3b9 8940 87bc 5ca5 95ba
00000090: 2fcb 92ba aafa d9bc 45db 13bc feca 1fbc
000000a0: ca7f 04bc 1428 8cbc 2e98 08b6 e1b8 33ba
000000b0: 102f 6eba 0a92 0ebb c3ad 43bd 7f27 67bc
000000c0: e0aa 47bb bbff dfbc dca9 35bc 2dbc 23bc
000000d0: dea8 d2bb b079 b0bc 7a79 dbb8 707d 48bc
000000e0: 97e2 7cbc cf8c d7ba 136b eabb 85c2 c7ba
000000f0: 7122 38bd 2496 81bc 6d65 e5bc d4e7 53bc
00000100: fae2 e5bc c916 95bb 7fbf a1b9 a662 8e38
00000110: 19c4 f2bb 00ae 11bb 22b5 0ebc a7be 09b9
00000120: 63a4 cbbc c1ed 84b9 13f7 a1bb 810c 2cbc
00000130: b8e1 a6ba 1c99 02bb 978a 11bd 9f95 f1bc
00000140: 281c 35bc b842 94b9 bbb0 5cbb be34 8239
00000150: 39d1 15bb 9a76 09bb 3e4c ffbb c9eb b3b9
00000160: 21dd b7bb d304 10bc c3dd e1ba 4c96 e0bb
00000170: 46a1 343c 8253 b8ba c29c 17b9 1fe1 363b
00000180: bc8e 6b39 d406 46b8 97a9 00ba d008 6ab9
00000190: 662e 573c e40a 433e 62b6 fabc 9801 e9b7
000001a0: 2559 e5bb de3d f2bb b940 ecb9 27ad 84bb
000001b0: 688a a63c ddf8 8fbb c965 31bd 0b5f db3c
000001c0: bff7 9ebc b9e0 03bc 518f babb 6e91 363e
000001d0: 3b9b 1ebc 82cd aeba 2e39 4dbc fc3d a9b9
000001e0: d672 6ebb ef76 56bb 4d2b 053a 3703 49bc
000001f0: 637f cdbb 8244 9cb9 7c44 5bbb d020 6dbb
-0.00023740201 -0.0038826782 -0.014209783 -0.0015552064 -0.02920398 -0.009523219 -0.0054104337 5.8523558e-05
-0.009749265 -0.0009432219 -0.001422263 -0.00038830485 -0.00095490145 0.00062455883 -0.0019297785 -0.000409527
-0.00016798236 -0.0037471124 -0.0076299678 0.0005300188 -0.0028558527 -0.000671645 0.0023440872 -0.021165958
-0.021905974 -0.012994754 -0.009491939 -0.001921413 -0.005899942 -0.005750703 -0.0055259205 -0.02312061
-0.032935314 -0.00046499277 -0.016510265 -0.0011417079 -0.001119947 -0.026608784 -0.009024446 -0.009752987
-0.008087108 -0.017108954 -2.035416e-06 -0.0006855857 -0.00090859924 -0.0021754527 -0.047773134 -0.014108538
-0.003046684 -0.027343621 -0.011087861 -0.009993595 -0.006428822 -0.0215424 -0.000104653605 -0.012236938
-0.015434883 -0.0016445162 -0.0071538775 -0.0015240466 -0.04495472 -0.015818663 -0.028002465 -0.01293369
-0.028062332 -0.0045498353 -0.0003085099 6.789462e-05 -0.0074086306 -0.0022228956 -0.008710178 -0.00013136362
-0.02485866 -0.00025354142 -0.0049427836 -0.010501028 -0.0012732064 -0.0019927686 -0.03553256 -0.02949029
-0.011054076 -0.0002827847 -0.0033674676 0.00024834828 -0.0022860302 -0.0020975233 -0.007791071 -0.00034317214
-0.0056110774 -0.008790213 -0.0017232228 -0.0068538543 0.011024779 -0.0014062973 -0.00014458879 0.0027905179
0.00022464519 -4.7213238e-05 -0.00049080834 -0.00022319262 0.013133621 0.19047123 -0.030604545 -2.7776507e-05
-0.0069991522 -0.007392629 -0.0004506165 -0.0040489617 0.02032967 -0.0043936805 -0.04330996 0.026778718
-0.019405244 -0.0080491835 -0.005693354 0.17828915 -0.0096805645 -0.0013336393 -0.01252584 -0.00032280374
-0.0036384366 -0.0032724699 0.00050799997 -0.012268833 -0.006271289 -0.0002980568 -0.0033457568 -0.0036182888

fc2.weight f4 [128, 130]
00000000: 38b4 bd80 68fd 9a02 be70 9a82 2654 0283
00000010: aa56 0983 8600 a202 944c 0983 1bfe 7d02
00000020: 4018 3d03 b0d9 3103 380a 4d82 6a0a 0683
00000030: 7cfa 1e82 da33 c282 7221 5503 04b6 1f02
00000040: 72b9 9081 0029 7902 2c35 3b03 bae7 1f03
00000050: a4ef 5383 ba06 d102 1c7c 1683 90fd cf00
00000060: 8419 e801 a8f9 9c82 1717 2e02 a4ba fe01
00000070: c42f a882 d8a9 6603 04c0 aa82 4d02 b082
00000080: ac42 aa02 181d a682 8888 ef82 9da9 0a25
00000090: 640a 1a03 ba96 8982 1f25 f102 273c 1c02
000000a0: 4d02 2883 ea22 3503 67ef 9e82 f254 9302
000000b0: 21c3 1f83 e380 1e83 5892 8802 5d03 6603
000000c0: 0813 b902 36ba 3d83 42d1 cf81 7c76 f902
000000d0: 4404 2002 5911 0d82 801a 5283 a2e7 8502
000000e0: e65e 2983 061e a782 79ce 4203 7cae 0d03
000000f0: 7a46 eeb8 d3e7 6e03 fd22 6c83 50bc 1603
00000100: 2c9e c402 527f f602 95ef 3803 5cfd eb82
00000110: eecc 6c03 57fa 2502 2d78 8502 3f49 1783
00000120: b055 e300 f859 8282 5e1e 9202 5824 9482
00000130: 517b 1d02 ef4e c182 6341 0803 c218 4383
00000140: 224d e182 4cc5 4383 f48c d282 fda2 d402
00000150: 5e6e f001 37b9 1182 35af c982 28e5 bd80
00000160: 0cc0 2683 16aa 5a83 7a69 0983 24f2 b602
00000170: c2ca ac81 f2ff 5283 0630 d381 e174 2403
00000180: c9d9 1883 f440 4001 1820 4783 2eb7 9882
00000190: 3a3c 6b02 982b 3db1 17ed 910b b616 6c03
000001a0: acc6 b382 ca09 5e02 009e 7501 c6bf f181
000001b0: 58fe 4701 ece0 0e83 3884 2c83 366d 8cae
000001c0: ec2c 0298 bf20 6183 be3b 4483 a916 8ca3
000001d0: d0cf 0301 9676 bd82 647f b402 fa0f b602
000001e0: 05f9 5d82 9d99 af02 c8ac 8180 5891 8b01
000001f0: aa7b 5a03 1c5f 1c83 8881 fc02 1e37 4503
00000200: 84ff adb4 4bb1 8134 9202 9ead 877f 0d32
00000210: d756 65b3 4d0c 5932 aa95 ceb0 4e64 f7ad
00000220: fb4f 79aa 9472 26ae d669 62b7 eedb 4931
00000230: 320a eb31 f5cd 34b0 24e6 ea31 2c74 8cb0
00000240: b7a3 80b0 70ad a531 41c9 c8b1 117f a531
00000250: 955b 84ae 4168 19b2 6165 1ab1 656a cf30
00000260: 6323 30b6 04c6 24b1 9860 33ae 88e7 9c31
00000270: db9b ea2e bf40 ecb0 b6a6 c831 ec50 9ab6
00000280: b5bf ab31 abf4 8131 2925 e4b0 a367 cbb0
00000290: d2b3 1e32 5393 c531 cc69 4cae 9548 5703
000002a0: fdae 1f30 218b 3caf 285a abaf afaa ceb2
000002b0: 1ead bb02 97e2 1ab1 56fc 12b1 10c4 bcb3
000002c0: a911 822b ef05 9431 4c47 88ad 76e7 9737
000002d0: 5e29 ceaf e1fe 35b1 392e a631 0a97 a831
000002e0: 4033 9e82 2bfa 57b0 2a64 ff2f c3bb 7e31
000002f0: c4a1 12ba b8d0 5eb0 b56c 85bc 0a76 03b2
00000300: f108 dd31 fc1c ccaf 7df2 6d31 7076 b5b0
00000310: 33eb a6b0 2222 1cb0 e2f0 0132 b2c8 aab0
00000320: 0f59 5436 9d1c 112c 7775 06b1 453a d9af
00000330: 2ae9 8e02 ea6b cb32 4a14 792c 1a90 36b0
00000340: 7092 aaae ebe7 41bb 9832 a4ba 530d 34b0
00000350: 922f 39b1 2f8a d1b0 5d7a f2ad 9281 dfae
00000360: 74c0 d630 a826 5130 6559 00b1 db33 dd38
00000370: f66d b031 3cf7 4131 23f8 3634 d325 7131
00000380: b065 952e 9ce8 19b0 1a44 34af 3280 26af
00000390: 699c 81af b717 06ae 754d 92bc 9044 debb
000003a0: 77cf 2cba f770 9fb0 6165 a031 28bb 0a30
000003b0: 5ad7 5030 81df 22b1 824d deb5 554e 8bb0
000003c0: d008 a827 ef26 0cba cfea 34bc c91d a531
000003d0: cc58 b6b2 201b c2ba 06e2 0eb0 f4ab a0b0
000003e0: be4a cd31 ac99 80ae cc43 6cb0 8d84 05b7
000003f0: d63e d335 cf1b 1c32 5b26 90b4 52a0 7e31
-1.7421559e-38 2.2773714e-37 -2.2692977e-37 -3.8300164e-37 -4.0360167e-37 2.380406e-37 -4.034859e-37 1.8660429e-37
5.5569946e-37 5.226552e-37 -1.5063954e-37 -3.9391016e-37 -1.1679892e-37 -2.85355e-37 6.2633468e-37 1.1733711e-37
-5.3163347e-38 1.8305397e-37 5.50154e-37 4.699191e-37 -6.228242e-37 3.071365e-37 -4.422351e-37 1.9100909e-38
8.5259954e-38 -2.3065436e-37 1.2790128e-37 9.357268e-38 -2.4712797e-37 6.7785896e-37 -2.5089467e-37 -2.5862196e-37
2.5017523e-37 -2.4408207e-37 -3.5196259e-37 1.2027059e-16 4.526846e-37 -2.0216854e-37 3.5433074e-37 1.1478333e-37
-4.9373404e-37 5.32312e-37 -2.3353424e-37 2.1648465e-37 -4.6949897e-37 -4.657998e-37 2.0067401e-37 6.7594786e-37
2.719423e-37 -5.5755868e-37 -7.634006e-38 3.6655268e-37 1.1756168e-37 -1.0364022e-37 -6.1743874e-37 1.9675544e-37
-4.9773574e-37 -2.4555677e-37 5.7248495e-37 4.1636474e-37 -0.00011361852 7.0208035e-37 -6.939433e-37 4.429721e-37
2.8890398e-37 3.621953e-37 5.4347767e-37 -3.4675568e-37 6.9589414e-37 1.219413e-37 1.961157e-37 -4.4458994e-37
2.0877397e-38 -1.9153423e-37 2.1470202e-37 -2.1767506e-37 1.1569928e-37 -2.8404107e-37 4.004187e-37 -5.733377e-37
-3.310505e-37 -5.7531835e-37 -3.093763e-37 3.124415e-37 8.8320445e-38 -1.0706072e-37 -2.963486e-37 -1.7439115e-38
-4.9003475e-37 -6.425969e-37 -4.0381763e-37 2.6881478e-37 -6.3473765e-38 -6.2007264e-37 -7.757807e-38 4.832944e-37
-4.491879e-37 3.5311432e-38 -5.8517686e-37 -2.2439533e-37 1.7282357e-37 -2.75279e-09 5.62087e-32 6.9380238e-37
-2.6415718e-37 1.6312793e-37 4.5112753e-38 -8.88046e-38 3.673301e-38 -4.1988247e-37 -5.0698037e-37 -6.385863e-11
-1.6824786e-24 -6.615915e-37 -5.7667804e-37 -1.5188427e-17 2.4209998e-38 -2.783912e-37 2.6521742e-37 2.6751667e-37
-1.6307981e-37 2.5802109e-37 -1.1908761e-38 5.1269094e-38 6.42064e-37 -4.595346e-37 3.710242e-37 5.795637e-37
-3.2409673e-07 2.415712e-07 -1.7963662e-11 8.2362765e-09 -5.3397198e-08 1.2633859e-08 -1.503101e-09 -2.8125193e-11
-2.2143391e-13 -3.7845796e-11 -1.3495292e-05 2.9374365e-09 6.8405592e-09 -6.57763e-10 6.8364603e-09 -1.0219359e-09
-9.359756e-10 4.8218496e-09 -5.843646e-09 4.816578e-09 -6.018933e-11 -8.929477e-09 -2.2467577e-09 1.5091471e-09
-2.6246641e-06 -2.39777e-09 -4.078568e-11 4.5665196e-09 1.06687735e-10 -1.7189662e-09 5.839719e-09 -4.598978e-06
4.9985496e-09 3.7822097e-09 -1.6599745e-09 -1.4799649e-09 9.237697e-09 5.7502034e-09 -4.6478196e-11 6.326614e-37
5.8092536e-10 -1.7147929e-10 -3.116878e-10 -2.4059174e-08 2.7576545e-37 -2.253875e-09 -2.1389233e-09 -8.790096e-08
9.241957e-13 4.3080415e-09 -1.5493072e-11 1.8108385e-05 -3.7500575e-10 -2.6483848e-09 4.8364908e-09 4.9066147e-09
-2.324543e-37 -7.8572054e-10 4.64554e-10 3.7068595e-09 -0.0005593563 -8.1059737e-10 -0.016287187 -7.6520426e-09
6.432963e-09 -3.7127978e-10 3.4625878e-09 -1.3203145e-09 -1.2144937e-09 -5.6800975e-10 7.563559e-09 -1.2426169e-09
3.16423e-06 2.0621623e-12 -1.9566337e-09 -3.9513473e-10 2.0998854e-37 2.3681384e-08 3.539629e-12 -6.6415995e-10
-7.7567175e-11 -0.0029587697 -0.0012527285 -6.5502553e-10 -2.6948084e-09 -1.5246026e-09 -2.7566555e-11 -1.0163882e-10
1.5625248e-09 7.608869e-10 -1.8677266e-09 0.0001054776 5.1347753e-09 2.8225733e-09 1.7040342e-07 3.5091616e-09
6.793799e-11 -5.5991634e-10 -1.6395099e-10 -1.5143156e-10 -2.35761e-10 -3.0489136e-11 -0.0178592 -0.0067830756
-0.0006592194 -1.1600879e-09 4.6681383e-09 5.047007e-10 7.597599e-10 -2.370115e-09 -1.6562847e-06 -1.0135844e-09
4.663892e-15 -0.0005346378 -0.011042311 4.805518e-09 -2.1227969e-08 -0.0014809109 -5.19805e-10 -1.1690404e-09
5.9747824e-09 -5.848064e-11 -8.5952645e-10 -7.95828e-06 1.5739013e-06 9.086718e-09 -2.6849997e-07 3.7052996e-09

fc2.bias f4 [128]
00000000: 35ee 66b6 bf2c e0bc 70e8 e699 fc4c 038b
00000010: 4dcf 98bb d5ad 5eb5 530b d388 229a d9ac
00000020: 98e7 df9c 4036 04b4 90c0 c3b8 34cd 22b4
00000030: 409d 26b7 3c2c a8bc 06db 3ebc eedd 2bbb
00000040: 2971 ebbd 3148 c6b8 f9a7 0bbe ee1a a8a7
00000050: a875 7fb1 3d2a c7bc 7d98 d2bb 2c43 0ab0
00000060: 259e 843d 224d 9a9c ad0d f9aa 76d2 2aaf
00000070: 15a3 cc96 160b 2299 1b9e 2eb4 2952 16ac
00000080: e0f4 54bc ebd0 d73d 4089 19b4 a8a5 b4ba
00000090: 081a 07a9 67ee f5ac 9a66 50bc 9a14 89b4
000000a0: a2fe a49f 52c9 86bb 714d f4a0 5913 edaf
000000b0: e815 08bc a7ac 77b0 1bd1 99b6 63b0 9bbb
000000c0: 6c8d 01bb 66a3 0095 6eef 1ba0 dcf7 233e
000000d0: 7e35 45bc 4d55 0eb1 e3f4 28b6 53cf e9b9
000000e0: 790b 87af a7b3 68b9 0626 42b1 9398 4d9c
000000f0: 4c1f 508c d8e5 e085 355b 71be 65fa 5fb5
00000100: 514b 7faf 1cb0 2d3e 2e66 85bc 0d59 95bc
00000110: d83a b8b4 8a1e 583e 7701 60b8 b767 6dba
00000120: 86a4 1bbe cf46 cfb6 d0f7 fbba 0d20 55b9
00000130: 25c3 cfbb d665 2cbb de8a adb9 f31a 30b8
00000140: a26c 77bb 8001 758e ff71 80b3 69ac 54af
00000150: f86f a5b0 5830 d785 18d2 d93c e86b 7aae
00000160: 2537 2fb4 622b c8ba b2c1 6cbb 2e9e 6dbb
00000170: f7b3 f193 5ba5 79ae 6fa0 c9b6 4248 7db8
00000180: 8d3b 2ab9 2669 c1bc 387f 9d3b 9ef4 139e
00000190: 1182 69ba 7836 d883 6dde 9ea7 a09f 7fa9
000001a0: 707d 8eba 6ed9 afbc 2007 b9a8 3dee 92b9
000001b0: cc8a 3aba 9e8b 7998 8dbe 0cb6 d660 0fa6
000001c0: eb95 c19f 5c4a 96b7 4c28 a6a1 f254 4fb9
000001d0: 9098 c3bc f643 35ba 9dfa 95bd 0317 d9ba
000001e0: efa8 e9bc 2bd8 8097 5adf 9db5 a37b fbbc
000001f0: 38ed 6b3e ec90 fb87 066d 0abd c49e 91bb
-3.4411325e-06 -0.027365087 -2.3875323e-23 -2.52876e-32 -0.004663384 -8.2954404e-07 -1.2701763e-33 -6.184623e-12
-1.4816768e-21 -1.2313194e-07 -9.334192e-05 -1.5162078e-07 -9.930984e-06 -0.020528905 -0.011648899 -0.002622481
-0.11496193 -9.4548224e-05 -0.13638295 -4.6658564e-15 -3.7174264e-09 -0.024312133 -0.0064268694 -5.0299565e-10
0.06475476 -1.0210804e-21 -4.4240775e-13 -1.553618e-10 -3.3060897e-25 -8.3774425e-24 -1.6262531e-07 -2.136189e-12
-0.012997836 0.10537895 -1.4299167e-07 -0.001378228 -2.99986e-14 -6.989787e-12 -0.012719775 -2.5533228e-07
-6.9877956e-20 -0.0041133547 -4.1386454e-19 -4.3123796e-10 -0.008306004 -9.010343e-10 -4.5840984e-06 -0.0047512515
-0.0019768132 -2.5978293e-26 -1.3208231e-19 0.1601252 -0.012036679 -2.0712208e-09 -2.5176494e-06 -0.00044595692
-2.456451e-10 -0.0002219217 -2.825233e-09 -6.802601e-22 -1.6033155e-31 -2.114929e-35 -0.23569949 -8.3438346e-07
-2.3218873e-10 0.16961712 -0.016284075 -0.01823094 -3.4315485e-07 0.211054 -5.3407126e-05 -0.0009056287
-0.1519948 -6.177324e-06 -0.0019223634 -0.00020325203 -0.0063404017 -0.0026305816 -0.00033100595 -4.198677e-05
-0.003775396 -3.0199304e-30 -5.9812e-08 -1.934254e-10 -1.2037153e-09 -2.0236262e-35 0.026589438 -5.693926e-11
-1.6318207e-07 -0.0015271718 -0.0036126194 -0.0036257613 -6.1014412e-27 -5.676291e-11 -6.0089437e-06 -6.0387196e-05
-0.00016234648 -0.023609709 0.0048064254 -7.832701e-21 -0.0008907626 -1.2707844e-36 -4.4094964e-15 -5.6759827e-14
-0.0010871124 -0.021465983 -2.0542216e-14 -0.0002802479 -0.0007116019 -3.2252984e-24 -2.097254e-06 -4.974433e-16
-8.19867e-20 -1.791602e-05 -1.1259264e-18 -0.00019772703 -0.023876458 -0.0006914729 -0.07323191 -0.0016562644
-0.028522937 -8.326375e-25 -1.1762415e-06 -0.030698603 0.2303971 -3.785146e-34 -0.03379538 -0.004443975

fc3.weight f4 [1, 128]
00000000: f55a 0d38 e176 203b 4438 4eb9 d812 681b
00000010: 556f 50ba 3cdd 72ba f952 f52b b8b0 e236
00000020: 21bd 79ba d91e 623a 936d 803b c530 d7b4
00000030: 70cb c0b8 15c2 94b9 7df9 cbb9 598f 9a3b
00000040: a862 86bd f9e6 44b7 2cb6 bbbd 0fd7 13b9
00000050: 00e4 e9bb af3e b1bb 795a ae3a 4fc2 5b39
00000060: 9284 98bc 5990 a634 8dad 04b7 b28c afad
00000070: 5a02 03b5 2ce1 512e 722d e838 0b38 13ac
00000080: 8da3 d7ba f430 6d3d 22da dcb9 907d 1bbb
00000090: 2271 1436 011b 1535 a7d2 9c3c 7a78 c538
000000a0: e8cc 43b9 8d02 24bd 173e a7b4 6e34 dd39
000000b0: fe6e 09bb 7dff 4738 170a e23b af7a a339
000000c0: fae6 1f3c 1118 0533 ed24 ce30 ccc1 d53d
000000d0: b25b c0bc 1984 8638 ac5c 8fbc ed05 d7bb
000000e0: 1100 d4b1 dad5 0fba 26d8 e637 a876 0e26
000000f0: 4172 9239 0cf2 70a3 ca6f 94bd 3924 68b9
00000100: dc01 4c37 e6d1 90bc 8111 aebc 4df9 a1bc
00000110: 10b8 4e3a b296 403e 423b 2e3a 5f53 89b9
00000120: fbfc 02be 2177 a5b8 c20d 1ebb 6ef1 38bc
00000130: fa24 e33c f7e3 3cbb 9d60 e03c 4940 97bb
00000140: ff1a 863b 13ee cf39 ca6b be33 857d 1633
00000150: fc3f fe34 a91e ecaf f69c 113e 7985 fbb7
00000160: 3d37 4836 fec7 94ba 31a3 4e3b e2e4 c738
00000170: 1bc6 511d e368 c339 38f2 ccb9 2079 7c39
00000180: c1fc 943b c723 84bb 1e14 81bc f173 84b0
00000190: 37a5 a3ba 3008 861d 52da feb9 d618 85b2
000001a0: 983a d63a 5645 123b df47 f835 e6a8 ee38
000001b0: ad87 3abb 5169 709f f021 37ba a9b8 50b1
000001c0: a696 a9ad e6a0 a6b8 12aa ca37 845a c6ba
000001d0: 7290 2e39 4d99 c5bb d3b8 c83d e9bb e63c
000001e0: b1a8 553b c9d6 3825 3453 b23a dc6f 953b
000001f0: 9d58 113e f353 13b7 01bd 97bb 6e92 263a
3.370173e-05 0.002448492 -0.00019666651 1.9196679e-22 -0.000795116 -0.0009264534 1.7431327e-12 6.7558976e-06
-0.00095267786 0.00086258125 0.0039193123 -4.0082355e-07 -9.1931666e-05 -0.00028373362 -0.0003890506 0.0047167954
-0.06561786 -1.1736288e-05 -0.09165606 -0.00014099128 -0.0071377754 -0.005409084 0.001330211 0.00020957853
-0.018617902 3.1024936e-07 -7.908221e-06 -1.9957678e-11 -4.8804725e-07 4.772109e-11 0.00011071087 -2.0921067e-12
-0.001645194 0.057908013 -0.00042124192 -0.0023725964 2.211957e-06 5.554612e-07 0.019143416 9.4161325e-05
-0.00018672983 -0.040041495 -3.115135e-07 0.00042191468 -0.0020970698 4.768324e-05 0.0068981755 0.0003118119
0.009759659 3.0988364e-08 1.4998968e-09 0.104373544 -0.023481224 6.414223e-05 -0.017500244 -0.0065619857
-6.1700196e-09 -0.00054868835 2.7518789e-05 4.9426956e-16 0.00027932416 -1.30616815e-17 -0.072478846 -0.00022138738
1.215978e-05 -0.017678212 -0.02124858 -0.019772196 0.0007885704 0.18807486 0.00066464033 -0.00026192793
-0.12791817 -7.8900026e-05 -0.0024117087 -0.01128803 0.027727593 -0.00288224 0.027389819 -0.0046158177
0.0040925737 0.00039659496 8.867171e-08 3.5038756e-08 4.7357742e-07 -4.2949935e-10 0.14220032 -2.9983685e-05
2.9834475e-06 -0.0011351106 0.0031530375 9.531692e-05 2.7763338e-21 0.00037271445 -0.0003909038 0.00024077715
0.004546732 -0.0040325853 -0.015756663 -9.637217e-10 -0.0012485151 3.547797e-21 -0.00048609317 -1.5494532e-08
0.0016344367 0.002231916 1.8498357e-06 0.00011380184 -0.0028462217 -5.0909093e-20 -0.0006985953 -3.037295e-09
-1.9279977e-11 -7.9454665e-05 2.4159472e-05 -0.0015133177 0.00016647743 -0.006030238 0.098008774 0.028165774
0.0032601769 1.6032228e-16 0.0013605119 0.004560454 0.1419396 -8.781429e-06 -0.0046306853 0.0006354217
